models/model_acc_86.pth (torch, 34750 bytes, 10 tensors)

block_1.0.weight f4 [10, 1, 3, 3]
0	0xbe625b72	-0.22105196
1	0x3f237ab1	0.6385909
2	0x3ebb8046	0.36621302
3	0xbf719f0f	-0.9438333
4	0x3e03694c	0.12833136
5	0x3f04e5be	0.5191306
6	0xbf848be8	-1.0355196
7	0x3e45ec7a	0.1932849
8	0x3eddcf83	0.4332238
9	0xbd403076	-0.046921216
10	0x3cb35834	0.021892644
11	0x3bd151ae	0.006387911
12	0xbe0ba4d6	-0.13637099
13	0x3e8318dc	0.25604904
14	0xbe74f212	-0.23920467
15	0xbea1f8a7	-0.3163502
16	0xbe040c9e	-0.12895438
17	0xbea8b7c6	-0.32952708
18	0xbe200a91	-0.15629031
19	0xbd6806c8	-0.056647092
20	0x3d70edcc	0.05882053
21	0xbe0db83e	-0.13839814
22	0xbce71b45	-0.028211245
23	0xbdd1e1b9	-0.10248131
24	0xbdb04396	-0.08606641
25	0x3df1ce31	0.11806906
26	0xbeab31fe	-0.3343658
27	0x3e921201	0.2852936
28	0xbe3b8170	-0.18311095
29	0xbdd52d46	-0.10409026
30	0xbf90b0db	-1.1303972
31	0xbf97dc72	-1.186415
32	0xbed7a92a	-0.4212125
33	0x3d805e7f	0.06268024
34	0xbf0a0a87	-0.53922313
35	0xbe89b257	-0.26893875
36	0x3cb6430c	0.022248767
37	0xbda09f02	-0.07842828
38	0x3d4db15f	0.050217982
39	0xbe6d9cec	-0.23204392
40	0xbe178bce	-0.14799425
41	0x3e7d27d8	0.2472223
42	0xbe94ead5	-0.29085413
43	0xbe04d77d	-0.12972827
44	0xbea0549d	-0.31314555
45	0xbfc40045	-1.5312582
46	0x3ee5a992	0.44855934
47	0xbf6fa794	-0.9361508
48	0xbf8556a1	-1.0417062
49	0xbddc78dd	-0.1076524
50	0xbf0a1b96	-0.5394834
51	0xbfbf1b00	-1.4930115
52	0xbf956a59	-1.167308
53	0xbf30a87c	-0.69007087
54	0x3e9a2597	0.30106804
55	0x3eac579d	0.33660594
56	0xbeae8ac1	-0.34090236
57	0x3eaf22ff	0.34206387
58	0xbf457cf3	-0.7714378
59	0xc03e8e21	-2.9774249
60	0xbe0906fa	-0.13381568
61	0xbf0efb1a	-0.558519
62	0xc0538abc	-3.3053427
63	0xbdf97859	-0.121811576
64	0x3e815eaf	0.2526755
65	0x3d8f3f0d	0.06994448
66	0x3e7d9d9a	0.24767151
67	0xbeff294a	-0.4983619
68	0xbf43d572	-0.76497567
69	0xbf4c2794	-0.7974789
70	0xc02b1246	-2.6729903
71	0xc0ae84ce	-5.4537115
72	0xbf63c042	-0.8896524
73	0xc07f0248	-3.9845142
74	0xbcb6462a	-0.022250254
75	0x3d3afccf	0.045651253
76	0xc0062421	-2.0959551
77	0xc00bd2b5	-2.1847355
78	0x3f1fee07	0.62472576
79	0xbefb8951	-0.49128202
80	0xbe19f9a4	-0.15036637
81	0xbe8695f4	-0.2628628
82	0xbf3c3386	-0.7351612
83	0xbfbed58d	-1.490892
84	0xbdadd579	-0.08487982
85	0xbef30f36	-0.47472543
86	0xbfc74c73	-1.5570205
87	0x3f20f7c6	0.6287807
88	0xbd78649f	-0.060642835
89	0xbf606da9	-0.8766733

block_1.0.bias f4 [10]
0	0xbd5215dd	-0.05129038
1	0xbeaeba5a	-0.3412655
2	0xbe064db9	-0.13115586
3	0xbea9dd8b	-0.33176836
4	0xbea24154	-0.31690466
5	0x3e447469	0.19185032
6	0x3e646c4c	0.22306937
7	0x3e6ed345	0.2332278
8	0x3e7b5a02	0.24546054
9	0xbf219a62	-0.63126194

block_1.2.weight f4 [10, 10, 3, 3]
0	0xbf250eaa	-0.644755
1	0xbec7ed35	-0.39048162
2	0xbde2f0c1	-0.110810764
3	0xbee924c4	-0.45535862
4	0xbeee8e20	-0.46592808
5	0xbd884b59	-0.066549964
6	0xbe6a30a3	-0.22870116
7	0xbee255ab	-0.44205984
8	0xbe542017	-0.20715366
9	0x3c56b39a	0.013104344
10	0xbdd6f36c	-0.10495648
11	0x3dc6692f	0.09688031
12	0xbda1db26	-0.07903127
13	0xbcc59fac	-0.024123989
14	0x3baae59b	0.0052153594
15	0xbd882c9a	-0.06649132
16	0x3d8756a5	0.06608323
17	0x3d469974	0.048486188
18	0xbe2739ba	-0.16330615
19	0xbd9a3638	-0.07529873
20	0xbbe13363	-0.006872581
21	0x3d1794a6	0.037006997
22	0xbdfdc381	-0.12390805
23	0xbca1be19	-0.019743966
24	0x3d203e8c	0.03912215
25	0x3cdcbc6c	0.026945315
26	0xbd9c189a	-0.0762188
27	0xbe44b90a	-0.19211212
28	0xbe42aab2	-0.19010428
29	0xbe05fb9b	-0.13084261
30	0xbe88b0d1	-0.266974
31	0xbdd538bf	-0.10411214
32	0xbdf3ec14	-0.11910263
33	0xbe8b1966	-0.27167815
34	0xbc8ed333	-0.017434692
35	0xbd8b6fcc	-0.06808433
36	0x3cfbe79f	0.030750094
37	0x3de1a59f	0.11017918
38	0xbb6ca16f	-0.0036106964
39	0x3d397e7f	0.04528665
40	0x3b8d69a6	0.004315573
41	0xbe192a31	-0.14957501
42	0x3d1eac26	0.038738392
43	0x3c368629	0.011140385
44	0x3d031d8b	0.032010596
45	0xbeb0c5f1	-0.34526017
46	0xbe5348f0	-0.20633292
47	0x3d26632c	0.04062192
48	0xbf002828	-0.50061274
49	0xbed3334f	-0.41250083
50	0xbe64bb03	-0.22336964
51	0xbee44a40	-0.44587898
52	0xbe575d31	-0.21031643
53	0xbefc81c6	-0.4931776
54	0xbe65096b	-0.22366874
55	0xbd9f67e3	-0.07783487
56	0x3d3c6351	0.045993153
57	0xbed8cd03	-0.42343912
58	0xbea69ace	-0.32539982
59	0xbea64b4f	-0.3247933
60	0xbeb07ba9	-0.34469345
61	0xbf0e5076	-0.55591524
62	0xbe5e3ca0	-0.21702814
63	0xbf0bada7	-0.5456185
64	0xbef26214	-0.47340453
65	0xbcb6f3d4	-0.022333063
66	0xbf21d1e2	-0.6321088
67	0xbed808b8	-0.42194152
68	0xbe0781fc	-0.13233179
69	0xbee05e1c	-0.438218
70	0xbf36a9e3	-0.71352977
71	0xbf0627de	-0.5240458
72	0x3e85346e	0.26016563
73	0xbe77e040	-0.24206638
74	0x3dc999cc	0.098437876
75	0xbe35ff08	-0.17773068
76	0x3c046010	0.008079544
77	0xbd7e3679	-0.062063668
78	0xbf17cccf	-0.5929689
79	0xbe109d86	-0.1412259
80	0xbdddfbd4	-0.10839048
81	0x3d2a77f0	0.041618288
82	0xbed0cc40	-0.4078083
83	0x3bdec612	0.006798514
84	0xbdf25fb0	-0.11834657
85	0xbe4fbd86	-0.20287141
86	0x3e88042e	0.2656569
87	0xbe15a932	-0.14615324
88	0xbe7356ab	-0.2376353
89	0x3ddf6048	0.10907036
90	0xbf896caf	-1.0736293
91	0xbff28105	-1.8945624
92	0xbfa7e92e	-1.3118036
93	0xbfd6044b	-1.672006
94	0xbfde256c	-1.735517
95	0xbf010746	-0.50401723
96	0x3dd2b8fe	0.10289191
97	0x3e2ccc02	0.16874698
98	0x3d407269	0.04698411
99	0x3d7f8616	0.062383734
100	0x3dcff2d1	0.101537354
101	0x3cb34200	0.021882057
102	0xbdc91cde	-0.09819959
103	0xbda1f966	-0.07908897
104	0xbd893a7d	-0.06700609
105	0xbd30b4d5	-0.043141205
106	0x3c601490	0.0136767775
107	0x3c1b0660	0.009461969
108	0x3e042baa	0.12907282
109	0xbd894970	-0.0670346
110	0xbdb8fa0b	-0.09032067
111	0x3e1ccc06	0.15312204
112	0xbdc40bc4	-0.095725566
113	0xbba92ec4	-0.0051630456
114	0xbc8b47b1	-0.017001959
115	0xbded78a0	-0.11595273
116	0xbe575886	-0.21029863
117	0xbe99530e	-0.29946178
118	0xbf1b9c69	-0.6078554
119	0xbf5965bf	-0.8492088
120	0xbed685f0	-0.4189906
121	0xbdbe2de7	-0.09286099
122	0xbec9339d	-0.3929719
123	0xbe8141b6	-0.25245446
124	0xbe67d61a	-0.22640267
125	0x3d8e49ef	0.069476955
126	0xbbaeb35b	-0.0053314394
127	0xbddcca3b	-0.1078076
128	0xbcec2f34	-0.028831102
129	0x3d82e7a7	0.063918404
130	0xbd11feb6	-0.035643302
131	0x3e212240	0.15735722
132	0xbdb45451	-0.088051446
133	0xbdc37407	-0.09543615
134	0xbd89e1a4	-0.06732491
135	0xbec81048	-0.39074922
136	0xbee60d8d	-0.44932213
137	0xbe851f29	-0.26000336
138	0xc00a0bb2	-2.1569638
139	0xbf090c3b	-0.5353429
140	0xbe9df486	-0.3085062
141	0xbfb08517	-1.3790616
142	0x3d55d24a	0.0522025
143	0x3fda74e5	1.7066923
144	0xbfaf4ed2	-1.3695929
145	0x3e9efa51	0.3105035
146	0xbf857e7b	-1.0429224
147	0xbe830de3	-0.25596532
148	0x3e459554	0.19295245
149	0xbef2a48e	-0.4739117
150	0x3f7bb66c	0.9832523
151	0xbf3a44de	-0.72761333
152	0xbe114a6c	-0.14188546
153	0xbf8a5fca	-1.0810483
154	0xbf2fb0fc	-0.6862943
155	0xbff362c9	-1.9014522
156	0xbfedba3d	-1.857246
157	0xbf47e627	-0.7808556
158	0xbecc4f6a	-0.39904338
159	0x3f8f676f	1.120344
160	0xbe355078	-0.17706478
161	0x3f196452	0.599187
162	0xbf25ae3b	-0.6471898
163	0xbf919a8d	-1.137529
164	0xbe253672	-0.1613405
165	0x3fb02335	1.3760744
166	0x3f56a7e1	0.8384991
167	0x3f1d97a3	0.61559504
168	0x3f5a3b9f	0.85247225
169	0x3f0ea997	0.55727524
170	0xbfde51a7	-1.7368668
171	0xbf8f0539	-1.1173469
172	0x3f007fdf	0.50195116
173	0xbe74d197	-0.23908077
174	0x3ea653bc	0.3248576
175	0xbe0a9ac1	-0.13535596
176	0xbfed796b	-1.8552679
177	0x3f879a90	1.0594044
178	0xbf1bda78	-0.6088023
179	0xbfb64d9d	-1.4242436
180	0xbf29d711	-0.6634379
181	0xbf7a7f77	-0.97850746
182	0xbe890f71	-0.26769593
183	0xbf11ee87	-0.5700459
184	0xbf5cfbb6	-0.8632158
185	0x3cfc7233	0.030816173
186	0x3e12be6e	0.14330456
187	0xbfbff5a2	-1.4996836
188	0xbd4062a2	-0.046969064
189	0x3c495bc3	0.012289944
190	0x3d898551	0.06714881
191	0x3d88ed25	0.06685857
192	0x3dc0cd67	0.094141774
193	0x3ce9ed4b	0.028555533
194	0x3d852680	0.06501484
195	0x3ccf751c	0.025324397
196	0xbdca1696	-0.09867589
197	0x3d8571e5	0.06515864
198	0x3e0d92eb	0.13825576
199	0xbe158383	-0.14600949
200	0xbe62a131	-0.22131802
201	0x3cfd36da	0.030909944
202	0xbe56e9c3	-0.2098761
203	0xbe9fc5e8	-0.31205678
204	0x3db0ffd1	0.08642543
205	0xbe6cf5aa	-0.23140588
206	0xbe49c57c	-0.1970424
207	0xbf229c85	-0.6352008
208	0xbeb85252	-0.36000305
209	0x3da83657	0.082134895
210	0xbe7912d7	-0.24323593
211	0xbe5a5a90	-0.2132361
212	0x3d5baa40	0.05362916
213	0xbf153a3c	-0.58291984
214	0x3e308ee7	0.17242013
215	0x3da021b4	0.07818928
216	0xbba3ff13	-0.0050047725
217	0x3e02e3d3	0.1278222
218	0xbdb02937	-0.08601611
219	0x3cb062f1	0.021531554
220	0x3ccb4950	0.024815232
221	0xbe16bd2a	-0.14720598
222	0x3e0767b7	0.13223158
223	0x3d681fb6	0.056670867
224	0xbdebeb49	-0.115194865
225	0xbebc66a9	-0.36797073
226	0x3de39ca8	0.11113864
227	0xbec32579	-0.38114527
228	0x3afd8f0a	0.0019344997
229	0x3f7c8f23	0.9865591
230	0x3f33b606	0.7019962
231	0x3e2c20be	0.16809365
232	0x3fa19ba6	1.2625625
233	0x3ef87c17	0.48532173
234	0x3d6b5506	0.05745413
235	0x3f2aeb94	0.66765714
236	0x3f2f7557	0.6853842
237	0xbc3f746e	-0.011685474
238	0x3f38f480	0.7224808
239	0x3cdf10c9	0.027229683
240	0xbefae079	-0.48999384
241	0xbf9b649e	-1.2140081
242	0xbf355cbe	-0.7084464
243	0xbf7b9fec	-0.98290896
244	0xbd0c366f	-0.0342316
245	0x3f433de7	0.7626633
246	0xbe248017	-0.16064487
247	0x3f3ef916	0.74598825
248	0x3e5a6f04	0.21331412
249	0x3e90a52b	0.28251013
250	0xbca781b2	-0.020447586
251	0xbe8a4188	-0.2700312
252	0x3e4a79cf	0.19773029
253	0xbcb6253d	-0.022234553
254	0xbcb83c5b	-0.022489717
255	0x3f29ed33	0.6637756

block_1.2.bias f4 [10]
0	0xbf01dbcc	-0.5072601
1	0xbeced3ba	-0.4039591
2	0xbc0028c0	-0.007822216
3	0xbe823bb5	-0.25436178
4	0xbe18e02e	-0.14929268
5	0xbedc89ea	-0.4307397
6	0xbe1c47df	-0.15261792
7	0xbfbcbc5c	-1.4744983
8	0xbe0fb982	-0.1403561
9	0xbca66614	-0.020312347

block_2.0.weight f4 [10, 10, 3, 3]
0	0x3da4a68a	0.08039577
1	0xbce625dc	-0.028094225
2	0xbe10403e	-0.14087006
3	0x3e073b6b	0.1320626
4	0xbcbb5add	-0.022870475
5	0xbd84d913	-0.06486716
6	0x3d0a8c91	0.03382546
7	0x3cc0cff4	0.02353666
8	0xbda5af66	-0.08090095
9	0xbd28121d	-0.0410329
10	0xbed4658e	-0.4148373
11	0x3d90d922	0.07072665
12	0xbdd66d80	-0.10470104
13	0x3e30f8d6	0.17282423
14	0xbd919042	-0.07107593
15	0x3d4e916e	0.05043166
16	0x3d88382e	0.066513404
17	0xbec1d30e	-0.37856334
18	0xbe838229	-0.25685242
19	0xbe3fb94a	-0.18723026
20	0xbdf22127	-0.118227296
21	0xbdffac47	-0.12484031
22	0xbe6c6cbd	-0.23088355
23	0xbe09948d	-0.13435574
24	0xbde0ac0c	-0.10970315
25	0xbe0ccb54	-0.13749439
26	0xbebc198a	-0.36738235
27	0xbe3b056e	-0.1826379
28	0xbe7cb75f	-0.24679326
29	0xbc35a380	-0.011086345
30	0xbe5e5303	-0.21711354
31	0xbe853dc3	-0.26023683
32	0xbd84c41a	-0.06482716
33	0xbd9dec0d	-0.07711039
34	0xbe832156	-0.2561137
35	0xbeecb956	-0.4623515
36	0xbd941f48	-0.07232529
37	0xbcff2d89	-0.031149643
38	0xbd8f4af6	-0.069967195
39	0xbcf04762	-0.029330913
40	0xbd2b7641	-0.041860823
41	0xbd1c61b0	-0.0381791
42	0xbd362e1f	-0.04447758
43	0x3ccff521	0.025385441
44	0xbd335879	-0.043785546
45	0xbcf651aa	-0.030068237
46	0xbc9da7c9	-0.019245045
47	0xbd18a8be	-0.0372703
48	0xbd3a2613	-0.045446467
49	0xbd64d643	-0.0558684
50	0x3d9ff31e	0.07810043
51	0xbd9ae8be	-0.07563923
52	0xbdbf462a	-0.093395546
53	0xbe619f18	-0.22033346
54	0xbbf05ebc	-0.007335512
55	0xbe86b1b9	-0.26307467
56	0xbda9ddb5	-0.082942404
57	0xbe0fb03b	-0.1403207
58	0xbe7f87bb	-0.24954121
59	0xbe0d0a91	-0.13773562
60	0xbd5a34ab	-0.053272884
61	0xbe8594f2	-0.260902
62	0xbe96a28a	-0.29420882
63	0xbdcc20fb	-0.09967228
64	0xbc4d3155	-0.012523969
65	0xbd8caaf6	-0.06868546
66	0xbdc6e98d	-0.09712515
67	0xbe203c5a	-0.15648022
68	0xbe877c78	-0.2646215
69	0x3cefaef0	0.029258221
70	0xbcc41bbd	-0.023939008
71	0xbe988c85	-0.29794708
72	0xbdea3649	-0.11436135
73	0x3c4e8c74	0.012606729
74	0xbccf47c6	-0.025302779
75	0x3cdf1ee8	0.027236417
76	0x3b7f4013	0.0038948103
77	0x3d48362a	0.04887978
78	0x3b18b871	0.0023303295
79	0x3b9265fa	0.004467723
80	0xbd57c372	-0.052676626
81	0x3cdf5b24	0.027265139
82	0xbe41f669	-0.18941654
83	0xbdc1f78e	-0.094710454
84	0xbe08b10c	-0.13348788
85	0xbe739144	-0.23785883
86	0xbdf8ecc0	-0.121545315
87	0xbdb5409c	-0.08850214
88	0xbe9c8e3d	-0.3057727
89	0xbdb0ff95	-0.086424984
90	0xbddfeb16	-0.10933511
91	0x3c4c1a6a	0.0124574695
92	0xbdd7332b	-0.105078064
93	0xbda20477	-0.07911008
94	0x3d0f10f3	0.034928273
95	0xbcd65b85	-0.026166687
96	0xbdb14b84	-0.086569816
97	0xbd4ea249	-0.050447736
98	0xbded616e	-0.11590849
99	0xbe99ad52	-0.30015045
100	0xbe9b11cd	-0.30287018
101	0xbf012a67	-0.50455326
102	0xbe320c82	-0.17387584
103	0xbe724040	-0.23657322
104	0xbee56758	-0.44805408
105	0xbeba4038	-0.3637712
106	0xbe5a26e4	-0.21303898
107	0xbe8c7b68	-0.27437901
108	0xbed89032	-0.42297512
109	0x3dd77a03	0.10521319
110	0xbe90ce41	-0.2828236
111	0xbeeceef0	-0.46276045
112	0xbe5e5be9	-0.21714748
113	0xbe8ba9eb	-0.27278075
114	0x3d0e4e85	0.03474285
115	0xbf1c0e5c	-0.6095941
116	0xbea4ab8f	-0.3216214
117	0x3e4e4486	0.20143327
118	0xbf0ba322	-0.54545796
119	0xbf4642a9	-0.77445465
120	0x3d383289	0.04497007
121	0xbe3602b5	-0.1777447
122	0xbd254932	-0.040353008
123	0xbdfd8cb7	-0.12380355
124	0x3cdb6a0d	0.026783967
125	0xbed1606e	-0.40893883
126	0xb96de488	-0.00022687216
127	0x3d2f17ae	0.042747192
128	0xbd462510	-0.04837519
129	0x3d85a7ff	0.06526183
130	0x3db3c61e	0.08778022
131	0xbd4f66bf	-0.050635096
132	0xbc6d9207	-0.014500148
133	0xbca7a29b	-0.020463279
134	0xbd947688	-0.072491705
135	0xbf4da5a1	-0.80330855
136	0xbf308598	-0.6895385
137	0xbeedd76d	-0.4645342
138	0xb913301e	-0.00014036938
139	0xbd87af22	-0.06625201
140	0xbef819b0	-0.48457098
141	0xbe7a621c	-0.24451488
142	0xbe1eac7a	-0.15495482
143	0xbe20516b	-0.15656058
144	0xbed82614	-0.4221655
145	0xbe205f3a	-0.15661326
146	0xbd857149	-0.06515748
147	0xbdb1a61e	-0.086742625
148	0xbf02380b	-0.50866765
149	0xbf015d93	-0.5053341
150	0xbe4deefe	-0.201107
151	0xbeebb8cc	-0.46039426
152	0xbf046203	-0.51712054
153	0x3ce3e876	0.027820807
154	0x3d926e56	0.07149951
155	0xbe22e544	-0.1590777
156	0xbc6a0d89	-0.014285454
157	0xbd0a2604	-0.03372766
158	0xbdc75b46	-0.09734206
159	0xbd87dd76	-0.06634037
160	0x3e70712d	0.23480673
161	0xbe43f41d	-0.1913609
162	0x3ae4022d	0.0017395668
163	0xbdc98d6a	-0.09841426
164	0x3d9dc626	0.077038094
165	0xbddec1fe	-0.10876845
166	0x3cc7fa5b	0.024411371
167	0x3d161d88	0.036649257
168	0xbd30a4e0	-0.043125987
169	0x3c857dfe	0.01629543
170	0xbcd96689	-0.02653815
171	0x3dc51b7a	0.09624381
172	0xbf21ed8f	-0.6325311
173	0xbef55d07	-0.47922537
174	0xbebc0d98	-0.3672912
175	0xbebf63d0	-0.37380838
176	0xbefcc7a7	-0.49371073
177	0xbf151fee	-0.58251846
178	0xbe9fd2f8	-0.31215644
179	0xbeecab42	-0.4622441
180	0xbd20fc4b	-0.039303105
181	0xbdb60c12	-0.08889021
182	0xbcd662a7	-0.026170088
183	0xbd9f58d2	-0.07780613
184	0xbd2aacc0	-0.041668653
185	0xbdb99b27	-0.09062796
186	0xbd3300bb	-0.04370187
187	0xbe1991d6	-0.14997038
188	0x3e12ae7e	0.14324376
189	0xbd713133	-0.05888481
190	0xbcec5228	-0.028847769
191	0xbd5399bd	-0.051660288
192	0xbc827022	-0.01592261
193	0xbdd8ac28	-0.10579711
194	0xbdd59937	-0.10429614
195	0xbd695c35	-0.0569727
196	0xbd679d3d	-0.05654644
197	0xbd5b4d7a	-0.053540684
198	0xbd3d0f87	-0.046157386
199	0x3b8d6428	0.004314918
200	0xbe843b38	-0.2582643
201	0xbda2826c	-0.07935032
202	0xbcc47c81	-0.02398515
203	0xbd8095f8	-0.06278604
204	0xbda99e67	-0.08282166
205	0xbdbc9a6f	-0.09209143
206	0x3b898c39	0.004197624
207	0xbdc87ab3	-0.09789028
208	0xbd91b4da	-0.07114573
209	0xbe2ad59e	-0.16683051
210	0xbda472ae	-0.08029686
211	0xbc24d97d	-0.010061619
212	0xbe1950bd	-0.14972205
213	0xbd65690a	-0.056008376
214	0xbda77ce9	-0.081781216
215	0x3cc429a8	0.023945644
216	0xbd947880	-0.07249546
217	0x3df09ad3	0.117482804
218	0xbd2a81fd	-0.041627873
219	0x3db4b169	0.08822901
220	0x3dc3f749	0.0956865
221	0x3da66a65	0.08125762
222	0xbce84fa4	-0.028358288
223	0xbd1e87ea	-0.038703837
224	0xbd3e391f	-0.046441194
225	0xbd1e3163	-0.038621318
226	0xbe29c47b	-0.16578858
227	0xbe61a91a	-0.22037163
228	0xbda3bc7e	-0.079949364
229	0xbe1d9b98	-0.15391386
230	0xbd92e30b	-0.07172211
231	0xb9376b18	-0.00017492136
232	0x3d8d6adb	0.06905147
233	0xbd65c8af	-0.05609959
234	0xbd80ffd7	-0.062987976
235	0xbd688da2	-0.056775697
236	0xbe20690c	-0.15665072
237	0xbd0d7a37	-0.03454038
238	0xbca59f90	-0.020217687
239	0xbda64d5e	-0.08120225
240	0xbd8b7890	-0.06810105
241	0xbd6c3e76	-0.057676755
242	0xbd85401f	-0.06506371
243	0xbe4af72d	-0.19820853
244	0xbed5e04c	-0.41772687
245	0xbdb64bd6	-0.08901183
246	0xbe41b1f3	-0.18915538
247	0xbe2d1c53	-0.16905336
248	0xbe014800	-0.12625122
249	0x3d635c66	0.05550804
250	0xbdc5ee60	-0.09664607
251	0xbb844332	-0.0040363306
252	0xbdd1b125	-0.10238866
253	0x3b397924	0.0028300965
254	0xbdc1edcb	-0.094691835
255	0xbda4459b	-0.08021089

block_2.0.bias f4 [10]
0	0xbf12b97f	-0.57314295
1	0xbecdd215	-0.40199342
2	0xbd826f78	-0.06368917
3	0xbf74e79e	-0.9566592
4	0xbea7e492	-0.32791573
5	0xbbfa9039	-0.007646587
6	0x3c437828	0.011930503
7	0xbe81f95e	-0.25385565
8	0xbe86e717	-0.26348183
9	0xbdd30b45	-0.10304884

block_2.2.weight f4 [10, 10, 3, 3]
0	0x3bb3427d	0.0054705725
1	0xbda8d461	-0.08243633
2	0xbda0a47f	-0.07843875
3	0xbd09c9d5	-0.033639748
4	0x3c9781e5	0.018494556
5	0x3d1aa5d2	0.037755795
6	0x3dd3cdd1	0.10341991
7	0x3ddba8d6	0.10725562
8	0x3d56014a	0.052247323
9	0x3ea4da08	0.32197595
10	0xbd5d466f	-0.05402225
11	0xbe0e122a	-0.13874117
12	0x3db399c5	0.087695636
13	0xbce6d674	-0.028178431
14	0xbe2fcd59	-0.17168178
15	0x3e14572d	0.1448638
16	0xba5fead8	-0.00085417693
17	0x3ce1a848	0.027546063
18	0xbdb1ec7f	-0.08687686
19	0xbe453562	-0.19258645
20	0xbb8fd3c7	-0.0043892595
21	0xbdbdcc49	-0.0926748
22	0xbd521551	-0.05128986
23	0xbe44bc6b	-0.19212501
24	0xbd6554c2	-0.055989034
25	0x3c00ea55	0.007868369
26	0xbd02abe8	-0.031902224
27	0x3dada8f4	0.08479491
28	0xbd97cb01	-0.07411767
29	0xbd13db67	-0.03609791
30	0xbda6a84e	-0.0813757
31	0xbcaed214	-0.021340407
32	0x3bd50372	0.006500655
33	0x3ce61af6	0.028089028
34	0xbd36c107	-0.04461768
35	0xbe1b4210	-0.1516192
36	0xbe1bce72	-0.15215471
37	0xbd2183f5	-0.039432485
38	0xbdfdc328	-0.12390739
39	0xbe23bdfc	-0.15990442
40	0xbe0b50df	-0.13605069
41	0xbdb62963	-0.08894613
42	0xbe175720	-0.1477933
43	0x3bd15a42	0.0063889334
44	0xbd805519	-0.06266231
45	0xbdbb4d90	-0.09145653
46	0xbec773bf	-0.38955495
47	0xbf12a327	-0.572802
48	0xbd680408	-0.05664447
49	0xbe7f8658	-0.24953592
50	0xbf047e6b	-0.517554
51	0xbe683342	-0.22675803
52	0xbf270700	-0.65245056
53	0xbf4cdeaf	-0.8002729
54	0xbf020de2	-0.50802433
55	0xbe8f7735	-0.28020635
56	0xbef01295	-0.46889177
57	0xbea553cc	-0.32290494
58	0xbefe6f9a	-0.4969452
59	0xbf4e52e9	-0.8059526
60	0x3db5c004	0.08874515
61	0x3e172957	0.14761864
62	0xbe835ebb	-0.2565821
63	0x3c88c82f	0.016697017
64	0xbd3dae73	-0.046308946
65	0xbdcb7a01	-0.0993538
66	0x3d7e47d9	0.062080238
67	0x3e0f5e97	0.14000927
68	0xbdc27acf	-0.0949608
69	0x3c8cc33f	0.017182944
70	0x3de733d9	0.11289186
71	0x3e11b5d0	0.14229512
72	0xbc79138e	-0.015202416
73	0x3d4eec10	0.050518095
74	0xbdf69e0e	-0.12041865
75	0x3c0fb2a5	0.0087706195
76	0xbd848a5f	-0.06471705
77	0x3c9d195a	0.019177128
78	0xbc5e6842	-0.013574662
79	0xbbc38ec9	-0.005967949
80	0xbd1fc4bc	-0.03900598
81	0xbcd817a2	-0.026378457
82	0x3c3b75cc	0.011441659
83	0xbcd3d0f9	-0.025856482
84	0x3c7c12a0	0.0153853
85	0x3d07833f	0.03308415
86	0xbe1ca25a	-0.15296307
87	0xbc9f229f	-0.019425688
88	0xbe09641a	-0.13417092
89	0xbde29789	-0.11064059
90	0xbd1285f6	-0.035772286
91	0x3bd16632	0.0063903565
92	0x3dca5a1d	0.09880469
93	0x3dd4db64	0.10393408
94	0x3da34faa	0.07974179
95	0x3ba68efe	0.005082964
96	0xbd899fb1	-0.06719912
97	0x3d9d8a4e	0.07692395
98	0x3c832b9f	0.016012011
99	0xbdd8ec47	-0.10591941
100	0xbce7545e	-0.028238472
101	0xba494a7d	-0.0007678641
102	0xbdc815a6	-0.09769754
103	0xbd7fe65c	-0.062475547
104	0xbdc168d3	-0.09443822
105	0xbe07fc3b	-0.13279812
106	0x3c65aad1	0.014017777
107	0x3dfd9471	0.123818286
108	0xbd22e0e1	-0.039765242
109	0xbd7f89bc	-0.062387213
110	0x3cc8125f	0.024422823
111	0xbce4de2e	-0.027937975
112	0xbd2b9ab8	-0.0418956
113	0xbe13a002	-0.14416507
114	0xbd618222	-0.055055745
115	0x3d3a0a42	0.04541994
116	0x3bffb512	0.0078035677
117	0xbca7554b	-0.020426413
118	0xba06cac6	-0.000514191
119	0x3d179011	0.037002627
120	0x3bf7e3da	0.007565004
121	0xbda745b3	-0.08167591
122	0xbe660216	-0.22461733
123	0x3d8d095d	0.068865515
124	0xbdda826a	-0.10669406
125	0xbd64ccdb	-0.055859428
126	0x3dcdb24b	0.10043772
127	0xbce375db	-0.027766159
128	0xbded8655	-0.115978874
129	0x3aaade2d	0.0013036184
130	0xbd147394	-0.036243036
131	0xbbaa01ab	-0.005188187
132	0x3c320eb7	0.010867766
133	0x3d2c2a72	0.042032667
134	0xbe170a62	-0.14750054
135	0xbf9075a9	-1.1285907
136	0xbef5e75f	-0.48028085
137	0xbe9a8952	-0.30182892
138	0xbf36159d	-0.7112673
139	0xbf84508b	-1.033708
140	0xbf30b954	-0.6903279
141	0xbe88ccd4	-0.2671877
142	0xbf8c7e03	-1.0975956
143	0xbf834e84	-1.0258336
144	0xbf11a8e4	-0.5689833
145	0x3eabbbf4	0.33541834
146	0xbe1c8d18	-0.15288198
147	0x3e1b2b64	0.15153271
148	0x3e2021d0	0.15637898
149	0xbe8592a3	-0.26088437
150	0xbf0c141a	-0.5471817
151	0xbeaa2fbd	-0.33239546
152	0xbe9497d5	-0.2902209
153	0xbddf7f56	-0.10912959
154	0x3d2ed3a7	0.042682316
155	0xbdcadaa1	-0.099049814
156	0xbdf4d5ba	-0.119548276
157	0xbe110bb9	-0.14164628
158	0xbdce2ce3	-0.10067155
159	0xbd160a0f	-0.036630686
160	0xbde2cb29	-0.11073906
161	0x3d17b64e	0.037039094
162	0x3d883b16	0.06651895
163	0xbe244fea	-0.1604611
164	0x3df5c63f	0.12000703
165	0xbe2bd48c	-0.16780299
166	0xbd18e6e2	-0.037329562
167	0xbdb48f1c	-0.088163584
168	0xbe0d8306	-0.13819513
169	0xbba4fd70	-0.005035095
170	0x3deb3d06	0.11486249
171	0x3de126f5	0.109937586
172	0x3dbb9762	0.09159733
173	0xbe0b19b3	-0.13584022
174	0xbb950845	-0.004548105
175	0xbe3f13b5	-0.18659861
176	0xbe0966aa	-0.1341807
177	0x3d09a0a8	0.03360048
178	0xbcc6c7d3	-0.024265205
179	0x3d1c6d13	0.03818996
180	0x3cf4df12	0.029891524
181	0x3da212d3	0.07913747
182	0x3c81f395	0.01586322
183	0xbd8d243f	-0.06891679
184	0xbdc462b7	-0.09589141
185	0xbd30c966	-0.04316082
186	0xbd13f2b1	-0.03612012
187	0xbcc7a513	-0.024370706
188	0xbcfb2aac	-0.030659996
189	0xbd99d59a	-0.075114444
190	0xbd91eeae	-0.07125603
191	0xbcbf61ef	-0.023362128
192	0xbc21ff0f	-0.009887471
193	0xbc1a07d0	-0.009401277
194	0x3da4f2c0	0.080541134
195	0xbd5a52a3	-0.053301465
196	0xbda3168d	-0.079632856
197	0xbd8fbd10	-0.07018483
198	0xbd31b688	-0.043386966
199	0x3d37fbbe	0.044917814
200	0x3dcb3344	0.099218875
201	0x3dceaecc	0.100919336
202	0xbda982f5	-0.08276931
203	0x3d20c842	0.03925348
204	0x3da6f47c	0.081521004
205	0xbcb5ad62	-0.022177402
206	0x3c1c86a5	0.009553586
207	0x3a98bf76	0.001165374
208	0xbd8e5435	-0.06949655
209	0xbd83870d	-0.06422243
210	0x3c8e02fe	0.017335411
211	0x3c1c010a	0.009521732
212	0x3c087751	0.0083292285
213	0x3c4f3040	0.012645781
214	0x3da47d51	0.08031715
215	0x3d40a6a2	0.047033913
216	0x3d85ed9b	0.0653946
217	0xbdc426cd	-0.09577713
218	0xbdd50e26	-0.10403089
219	0xbcab1313	-0.020883119
220	0xbd866ef7	-0.065641336
221	0x3c5c0a64	0.013430212
222	0xbc469de5	-0.012122606
223	0x3d3d4c1e	0.04621517
224	0xbb6717ae	-0.0035261917
225	0xbe31bf48	-0.17358124
226	0x3cc11690	0.023570329
227	0xbe491033	-0.19635086
228	0xbe2d4368	-0.16920245
229	0xbda8569a	-0.08219643
230	0xbe1ef671	-0.15523697
231	0x3c84ce5f	0.016211687
232	0xbdf6df95	-0.12054364
233	0xbe3dcbc9	-0.18534769
234	0x3de10a80	0.10988331
235	0xbe023bd2	-0.12718132
236	0x3c90eb94	0.017690457
237	0xbd973d2a	-0.07384713
238	0xbd7d6fa7	-0.061874058
239	0xbe56a1be	-0.20960137
240	0xbe7048be	-0.23465249
241	0xbc881a6b	-0.01661416
242	0xbdc02a9a	-0.093831256
243	0xbd8c9548	-0.06864411
244	0xbd5c952d	-0.053853203
245	0x3cd7fc23	0.026365345
246	0x3d95cfbe	0.07315014
247	0x3d8872b1	0.06662501
248	0x3d6d0c2d	0.05787294
249	0xbdba18c5	-0.09086756
250	0x3bac6b13	0.0052617877
251	0xbcb24d81	-0.021765472
252	0xbd8068f2	-0.06270017
253	0xbd5743ca	-0.052554883
254	0xbc013745	-0.007886712
255	0xbc72d1da	-0.01482054

block_2.2.bias f4 [10]
0	0xbf004ea2	-0.50119984
1	0xbf3cce7e	-0.7375258
2	0xbe715fa3	-0.23571639
3	0x3cf163a9	0.029466467
4	0xbe6414ac	-0.2227351
5	0x3eacc413	0.33743343
6	0xbe328f57	-0.17437492
7	0xbda76070	-0.08172691
8	0xbdd619da	-0.104541495
9	0x3e2cda11	0.1688006

classifier.1.weight f4 [10, 490]
0	0xbd2c0fd7	-0.042007294
1	0xbc021823	-0.007940325
2	0x3dff45b0	0.12464464
3	0xbe7022d7	-0.2345079
4	0xbca1ff3c	-0.019775026
5	0xbcdc1086	-0.026863348
6	0xbc38553e	-0.011250792
7	0xbd9cc21f	-0.07654213
8	0x3dfb6f90	0.12277138
9	0x3d948d22	0.072534814
10	0x3e725ba0	0.23667765
11	0x3f18c4d1	0.5967532
12	0xbd84e4fd	-0.064889885
13	0xbd5acd59	-0.05341849
14	0xbdb03c88	-0.086052954
15	0x3e6875a7	0.22701131
16	0x3ef420b4	0.476812
17	0x3e033245	0.12812145
18	0x3e701e67	0.23449098
19	0xbc406f89	-0.011745342
20	0xbd530f84	-0.05152847
21	0xbcd248b3	-0.025669431
22	0xbed0c52e	-0.40775436
23	0x3e6a5245	0.22882946
24	0x3d94b31c	0.07260725
25	0xbcf85992	-0.030316148
26	0xbe06b01c	-0.13153118
27	0xbd938a2b	-0.07204088
28	0x3c009165	0.007847165
29	0x3e5c3a62	0.21506646
30	0x3e583166	0.21112594
31	0x3eb14ffe	0.34631342
32	0x3bff15cb	0.0077845803
33	0x3ebe5148	0.37171388
34	0xbcafb774	-0.021449782
35	0xbd13f0a2	-0.036118157
36	0xbf274b2d	-0.65349084
37	0xbd0b2d76	-0.0339789
38	0x3f278b7b	0.65447205
39	0x3dd08391	0.10181344
40	0xbe7eaa93	-0.24869756
41	0xbc81f725	-0.015864918
42	0xbceaefb4	-0.028678752
43	0xbdd180c8	-0.10229641
44	0xbe4ad644	-0.19808298
45	0x3ac349d3	0.0014899321
46	0xbda98604	-0.082775146
47	0xbd991080	-0.0747385
48	0xbdd08859	-0.10182256
49	0xbd8c7787	-0.068587355
50	0xbf08f11c	-0.53492904
51	0xbe94f0cd	-0.29089966
52	0x3e52dc5b	0.20591871
53	0xbe9e9873	-0.30975685
54	0xbc97b1dc	-0.018517427
55	0xbd4d73da	-0.050159313
56	0xbd547afa	-0.051875092
57	0xbdc3ae8f	-0.09554779
58	0xbed201fe	-0.41017145
59	0xbe2c6aa6	-0.16837558
60	0x3e34d3a8	0.17658865
61	0x3e932df8	0.2874601
62	0xbd66bf5f	-0.05633485
63	0xbd81f690	-0.06345856
64	0xbc913fed	-0.017730678
65	0xbe8b38c6	-0.27191752
66	0x3ee14441	0.43997386
67	0x3ebe228f	0.3713574
68	0x3ee83d84	0.45359433
69	0xbd3b2f70	-0.045699537
70	0xbdd75e9d	-0.10516093
71	0xbebf261d	-0.37333766
72	0xbdbddc35	-0.09270517
73	0xbe2f311c	-0.17108577
74	0x3d27419e	0.04083406
75	0x3eae3f4c	0.34032667
76	0x3c93681a	0.017993975
77	0xbe475120	-0.1946454
78	0xbea2bff5	-0.31787077
79	0xbf1840b7	-0.59473747
80	0xbf29e5f8	-0.6636653
81	0xbed8a8a7	-0.42316172
82	0xbde6f09f	-0.112763636
83	0xbd360ad8	-0.044443935
84	0xbd4c92ad	-0.04994457
85	0xbf908c5e	-1.1292837
86	0xbfd9c590	-1.7013416
87	0xbe470604	-0.19435889
88	0xbfb51bc3	-1.4149097
89	0xbe46b4a3	-0.19404845
90	0xbd0332c6	-0.032030843
91	0xbd98cd24	-0.074610025
92	0xbdebf00c	-0.11520395
93	0xbf130b1f	-0.57438844
94	0xbf0a5b48	-0.54045534
95	0xbe583048	-0.21112168
96	0xbccb96cc	-0.024852179
97	0x3b090e66	0.0020913123
98	0x3d0681ee	0.032838754
99	0xbd2560ad	-0.0403754
100	0xbe1a4c04	-0.1506806
101	0x3cb83c0d	0.022489572
102	0xbd23f1ba	-0.04002545
103	0x3cee57aa	0.029094536
104	0xbc480c3a	-0.012209946
105	0xbc725157	-0.014789901
106	0x3ca10c1b	0.019659093
107	0x3c718467	0.01474104
108	0xbcbc17ec	-0.022960626
109	0xbd2c027e	-0.041994564
110	0x3d032084	0.03201343
111	0x3d1f2d96	0.038861834
112	0xbb8136a5	-0.0039432817
113	0xbd2c7035	-0.042099196
114	0x3c59418e	0.013260258
115	0xbe39d880	-0.18148994
116	0xbc8dfc42	-0.0173322
117	0x3d347759	0.04405913
118	0xbbbe5820	-0.005808845
119	0xbc927586	-0.017878305
120	0x3cd765ed	0.02629372
121	0xbd1c8377	-0.038211312
122	0xbd1c09b5	-0.038095195
123	0xbde13409	-0.10996253
124	0xbb7aadba	-0.0038250522
125	0x3d2d2940	0.042275667
126	0xbcac6cde	-0.021048006
127	0xbd36ca67	-0.04462662
128	0xba81179c	-0.0009848955
129	0x3bcf8c18	0.006333839
130	0xbd34da45	-0.04415347
131	0x3c9894f1	0.018625708
132	0xbd02a5a6	-0.031896256
133	0x3c7cf495	0.015439172
134	0x3c85acf0	0.016317815
135	0x3b6fa928	0.003656933
136	0xbd2b986e	-0.041893415
137	0xbd02c67f	-0.031927582
138	0xbd225fe3	-0.039642226
139	0x3b998e52	0.0046861554
140	0xbb55e96f	-0.0032640358
141	0xbd11e42a	-0.035617985
142	0xbcb74365	-0.022371003
143	0x3c80477c	0.015659086
144	0xbd155983	-0.03646232
145	0xbd040629	-0.032232437
146	0x3cacd8ce	0.021099474
147	0x3d735764	0.059409514
148	0x3f6357f3	0.88806075
149	0xbe5f56da	-0.21810475
150	0xbea3ae13	-0.31968746
151	0xbdcfaf1b	-0.101408206
152	0x3e0061d9	0.12537326
153	0x3eafba1d	0.3432168
154	0xbf04f691	-0.5193873
155	0x3f9c96cd	1.2233521
156	0x3f1f7c1d	0.62298757
157	0x3ebefa49	0.37300327
158	0x3ee90020	0.45507908
159	0x3ee9a2f4	0.45632136
160	0x3d6dc8df	0.058052894
161	0x3f7b03f8	0.9805293
162	0x3f418cae	0.75605285
163	0x3c533a58	0.012892328
164	0xbeea4f89	-0.45763806
165	0x3f786692	0.9703151
166	0x3ee97fd7	0.45605347
167	0x3e6d6808	0.23184216
168	0x3f7f9f8e	0.99852836
169	0x3eef9ce7	0.46799394
170	0xbed01192	-0.40638405
171	0xbe22da4a	-0.15903583
172	0x3e00a1c9	0.12561716
173	0x3e8b5d4d	0.2721962
174	0x3e63f455	0.22261174
175	0xbdf89455	-0.12137667
176	0xbf37543e	-0.7161292
177	0xbf0689cb	-0.52554005
178	0xbe875204	-0.2642976
179	0xbeb32752	-0.34990937
180	0xbe1ca34b	-0.15296666
181	0xbeb8dd2c	-0.3610624
182	0x3e952985	0.2913324
183	0xbf956b3f	-1.1673354
184	0xbc7fcf0b	-0.015613328
185	0x3f29729d	0.6619051
186	0xbcd2c37a	-0.025727976
187	0xbe163664	-0.14669186
188	0xbcb132d9	-0.021630691
189	0x3e22a7dc	0.15884346
190	0xbfb2c00b	-1.3964857
191	0xbee92bd3	-0.45541248
192	0x3e983294	0.29726088
193	0x3df0a357	0.117499046
194	0xbf441a56	-0.76602685
195	0xbef149f6	-0.4712674
196	0xbd047ca9	-0.032345448
197	0x3d166caa	0.036724724
198	0xbd888f05	-0.06667904
199	0xbd55c393	-0.052188467
200	0xbd0218ab	-0.031761806
201	0x3cef21c9	0.029190915
202	0xbcbf8c43	-0.023382312
203	0x3d0f11c6	0.03492906
204	0xbd7f962d	-0.06239908
205	0xbd11a557	-0.03555807
206	0x3ca9ff8e	0.02075174
207	0xbd49c54e	-0.04926043
208	0x3da015b2	0.07816638
209	0xbd66a485	-0.05630924
210	0xbb87e078	-0.004146632
211	0xbd15e7a0	-0.036597848
212	0xbd7067cf	-0.05869275
213	0x3d758a6e	0.05994647
214	0x3d81a94f	0.06331121
215	0x3d602ef8	0.054732293
216	0xbdc6a6fd	-0.09699819
217	0x3c5af8ee	0.0133650135
218	0xbdb288dd	-0.08717511
219	0xbd3aa04b	-0.045563024
220	0xbd57e75c	-0.052710876
221	0x3d005136	0.03132745
222	0xbdad754f	-0.084696405
223	0xbd4a22a9	-0.04934946
224	0x3bb1d22a	0.005426665
225	0xbdb9c873	-0.09071436
226	0xbda1ab65	-0.07894019
227	0xbd8c5f65	-0.068541326
228	0xbde8e918	-0.11372584
229	0xbdf6e286	-0.12054925
230	0xbd774b8c	-0.06037478
231	0x3c808b8b	0.01569154
232	0xbdd5fd3e	-0.10448693
233	0x3d846cc0	0.06466055
234	0xbe194983	-0.14969449
235	0xbe387ded	-0.18016787
236	0xbd54f608	-0.051992446
237	0xbc914bff	-0.017736433
238	0xbd79471b	-0.060858827
239	0xbd8d3435	-0.06894723
240	0xbda6940c	-0.081337065
241	0xbd90ad86	-0.07064347
242	0xbd5a06c0	-0.053229094
243	0xbd3b3b23	-0.045710694
244	0xbd8a49b3	-0.06752338
245	0xbf73a20c	-0.9516914
246	0xbe2bba73	-0.16770343
247	0xbf28bab6	-0.659099
248	0xbebd739b	-0.37002262
249	0x3e279189	0.16364111
250	0xbf083e00	-0.53219604
251	0x3f70b4ad	0.9402569
252	0x3f0fa498	0.56110525
253	0xbf13ab42	-0.57683194
254	0x3f1ddfbb	0.6166951
255	0xbc0928bc	-0.008371528

classifier.1.bias f4 [10]
0	0xbf19b995	-0.600488
1	0x3f3b3594	0.7312863
2	0xbee7d483	-0.4527932
3	0x3e08ef29	0.13372482
4	0xbefedfa4	-0.4978
5	0x3fbe6ffb	1.4877924
6	0x3ebfc475	0.37454572
7	0xbbefb753	-0.007315555
8	0x3d287f56	0.041137062
9	0xbf9b3219	-1.2124664
